…
_tz":-540,"elapsed":6758,"user":{"displayName":"유나현","userId":"01437638864425519006"}},"outputId":"9fa46bb6-ea5d-4f61-ef48-55cc483c0dae"},"outputs":[{"output_type":"stream","name":"stdout","text":["Model: \"model_1\"\n","_________________________________________________________________\n"," Layer (type)                Output Shape              Param #   \n","=================================================================\n"," input_2 (InputLayer)        [(None, 180, 180, 3)]     0         \n","                                                                 \n"," sequential (Sequential)     (None, 180, 180, 3)       0         \n","                                                                 \n"," rescaling_1 (Rescaling)     (None, 180, 180, 3)       0         \n","                                                                 \n"," conv2d_5 (Conv2D)           (None, 178, 178, 32)      896       \n","                                                                 \n"," max_pooling2d_4 (MaxPooling  (None, 89, 89, 32)       0         \n"," 2D)                                                             \n","                                                                 \n"," conv2d_6 (Conv2D)           (None, 87, 87, 64)        18496     \n","                                                                 \n"," max_pooling2d_5 (MaxPooling  (None, 43, 43, 64)       0         \n"," 2D)                                                             \n","                                                                 \n"," conv2d_7 (Conv2D)           (None, 41, 41, 128)       73856     \n","                                                                 \n"," max_pooling2d_6 (MaxPooling  (None, 20, 20, 128)      0         \n"," 2D)                                                             \n","                                                                 \n"," conv2d_8 (Conv2D)           (None, 18, 18, 256)       295168    \n","                                                                 \n"," max_pooling2d_7 (MaxPooling  (None, 9, 9, 256)        0         \n"," 2D)                                                             \n","                                                                 \n"," conv2d_9 (Conv2D)           (None, 7, 7, 256)         590080    \n","                                                                 \n"," flatten_1 (Flatten)         (None, 12544)             0         \n","                                                                 \n"," dropout (Dropout)           (None, 12544)             0         \n","                                                                 \n"," dense_1 (Dense)             (None, 1)                 12545     \n","                                                                 \n","=================================================================\n","Total params: 991,041\n","Trainable params: 991,041\n","Non-trainable params: 0\n","_________________________________________________________________\n"]}],"source":["from tensorflow import keras\n","model = keras.models.load_model(\"convnet_from_scr
…
